model_cnn.pth (torch, 435608 bytes, 8 tensors)

conv1.weight f4 [6, 3, 5, 5]
-0.04980821 0.04732488 0.13560562 0.008148702 -0.006270956 -0.030366305 0.18917201 0.0675801
0.16243686 -0.052521307 0.119293414 -0.0959791 0.139668 0.33289632 0.082189515 -0.025235368
-0.14999941 0.010672561 0.111027464 0.13737568 0.11130117 -0.12625118 -0.14702244 0.08556656
0.04145495 -0.06436534 0.02306367 -0.119621255 0.04213763 -0.07123824 -0.16447559 -0.12185305
0.072540514 0.11361863 -0.08986437 -0.19757341 -0.21325792 -0.10686505 0.009279527 0.039798617
0.07303117 -0.40694198 -0.32587865 -0.02530725 0.11511804 0.2333236 -0.16375001 -0.30479556
-0.1355215 -0.013164798 0.06282092 -0.00016441364 0.012295952 0.0043561487 -0.09389883 0.07464454
-0.112819575 0.10455897 0.08097213 0.07270767 -0.09212249 -0.09270585 0.06480389 0.23467356
0.11091922 0.021856576 -0.2297362 -0.13048032 0.20394115 0.14230001 0.2843411 0.068830386
-0.19638097 -0.109755814 0.056084555 -0.06640819 -0.12646976 -0.049690533 -0.0073662847 -0.12142211
0.01699017 -0.08654359 0.05221038 -0.104838245 -0.07184805 0.008361675 -0.09032927 0.0139124
-0.028168516 -0.036355183 0.13196184 0.0069126813 0.082282215 0.19945878 0.041723866 0.18899125
0.27164298 0.17344636 0.22517817 0.15692434 0.010790665 0.12707767 -0.0324443 -0.08397603
0.031867824 0.020109635 0.013639276 -0.015604708 -0.060841966 -0.07294605 -0.05610099 0.06955394
0.078598455 0.019525792 0.013725058 -0.048981458 0.002499414 -0.075325824 -0.024679832 0.009315484
-0.08146762 -0.14449318 -0.06898234 -0.19399615 -0.09174781 0.031976137 0.114015065 0.11940171
0.021865727 -0.00684605 0.009530347 0.16213365 0.14043242 0.15059634 0.06428494 0.06172301
0.04547304 0.02618345 0.09964393 -0.033201545 -0.10402012 0.13667561 0.07210903 -0.05909031
0.010831368 -0.006502421 -0.07285226 0.013566627 0.026829181 0.013360944 -0.001961275 0.11111814
0.14980748 0.022593549 0.05159383 0.099044114 -0.06259627 -0.10336663 -0.047684275 -0.0075907777
-0.25210735 -0.16060036 -0.22286482 0.03227427 0.053550825 -0.018289294 -0.030850803 -0.05218665
-0.050464977 0.03901804 0.14537497 0.02090337 0.1394413 0.17703316 -0.060079712 0.039387636
0.2035183 -0.055505473 0.009545309 -0.08668752 0.12548089 0.032113753 -0.14007363 0.049826227
-0.059217397 -0.2683546 -0.25864685 -0.1858388 -0.13245544 -0.00033565846 0.07008014 0.0569553
0.041504014 -0.06659846 0.024026213 0.039902817 0.14235413 0.15667465 0.067648664 0.04370269
-0.013360233 0.14728074 0.06007946 -0.062187754 -0.009466947 0.12456247 -0.05790161 -0.15930106
-0.12056694 0.10662719 -0.25382286 -0.30858514 -0.08944671 0.014082404 -0.012503823 -0.015603851
0.042299435 0.095337495 0.119556434 0.060248177 -0.075023465 0.21040253 0.20896523 0.08679591
-0.08556864 0.07775111 -0.070327304 0.06856188 0.04738721 0.010808059 -0.09199742 -0.06688772
-0.013981161 -0.14808309 -0.10979695 -0.1417609 -0.12760349 -0.17154726 -0.16629606 -0.109638564
-0.06504144 -0.16755663 -0.10112261 -0.07796132 0.010418038 -0.03690888 -0.0916104 -0.05243429
-0.07851007 0.0016432172 -0.06340419 0.083423726 -0.08885706 -0.0415932 -0.0030650673 -0.0038939842
00000000: b203 4cbd bcd7 413d 33dc 0a3e 2282 053c
00000010: 977c cdbb c2c2 f8bc 4fb6 413e 6f67 8a3d
00000020: d955 263e 9520 57bd 1b50 f43d b190 c4bd
00000030: 2105 0f3e 6371 aa3e fa52 a83d 67ba cebc
00000040: 7299 19be f7db 2e3c 5e62 e33d 36ac 0c3e
00000050: def1 e33d fd47 01be 0d8d 16be 853d af3d
00000060: aacc 293d fad1 83bd 06f0 bc3c fdfb f4bd
00000070: 8298 2c3d 5be5 91bd 4a6c 28be 188e f9bd
00000080: 1f90 943d e2b0 e83d d00a b8bd af50 4abe
00000090: 4960 5abe 10dc dabd 2809 183c e003 233d
000000a0: 5e91 953d b35a d0be 91d9 a6be 2651 cfbc
000000b0: 02c3 eb3d 62ec 6e3e 15ae 27be 2a0e 9cbe
000000c0: 26c6 0abe 2ab1 57bc 41a8 803d 7366 2cb9
000000d0: f674 493c 06be 8e3b 084e c0bd 3ddf 983d
000000e0: f30d e7bd 0323 d63d b7d4 a53d c2e7 943d
000000f0: b7aa bcbd 91dc bdbd e7b7 843d 444e 703e
00000100: 9e29 e33d 900c b33c f73f 6bbe a29c 05be
00000110: f3d5 503e 18b7 113e 2895 913e f2f6 8c3d
00000120: 1818 49be a8c7 e0bd ebb8 653d 0401 88bd
00000130: 4a81 01be 4d88 4bbd e060 f1bb 28ac f8bd
00000140: f82e 8b3c c43d b1bd 8dda 553d 6fb5 d6bd
00000150: 1225 93bd 68ff 083c 8dfe b8bd d6f0 633c
00000160: a9c1 e6bc 2ce9 14bd 0121 073e c683 e23b
00000170: 9483 a83d ec3e 4c3e a5e6 2a3d ec86 413e
00000180: ca14 8b3e ec9b 313e 1b95 663e c6b0 203e
00000190: 54cb 303c a620 023e 50e4 04bd a0fb abbd
000001a0: d687 023d f6bc a43c 4577 5f3c e4aa 7fbc
000001b0: 6d35 79bd bd64 95bd 27ca 65bd 4c72 8e3d
000001c0: 3af8 a03d 8ef4 9f3c 11df 603c c8a0 48bd
000001d0: 35cd 233b 6d44 9abd 5c2d cabc f99f 183c
000001e0: 7fd8 a6bd 05f6 13be 9d46 8dbd eda6 46be
000001f0: 47e6 bbbd 69f9 023d bb80 e93d e288 f43d
00000200: c11f b33c d454 e0bb 2c25 1c3c 5d06 263e
00000210: 84cd 0f3e ed35 1a3e d3a7 833d 44d1 7c3d
00000220: f041 3a3d ad7e d63c 1e12 cc3d 58fe 07bd
00000230: 8008 d5bd b1f4 0b3e e6ad 933d ae08 72bd
00000240: 0d76 313c 4312 d5bb 9133 95bd 8f46 5e3c
00000250: dfc8 db3c dce7 5a3c bc88 00bb e891 e33d
00000260: 2267 193e 1b16 b93c 0d54 533d a4d7 ca3d
00000270: 7932 80bd e2b1 d3bd 9650 43bd 0fbc f8bb
00000280: 3714 81be 6c74 24be ad36 64be 0632 043d
00000290: 1c58 5b3d 6ed3 95bc d3ba fcbc abc1 55bd
000002a0: 5db4 4ebd 61d1 1f3d 2ddd 143e 8b3d ab3c
000002b0: b3c9 0e3e 2e48 353e 2516 76bd ee54 213d
000002c0: 1a67 503e b559 63bd ed63 1c3c 3a89 b1bd
000002d0: 107e 003e b689 033d 766f 0fbe 9616 4c3d
000002e0: f18d 72bd c665 89be 5c6d 84be 874c 3ebe
000002f0: 66a2 07be 51fb afb9 2d86 8f3d f649 693d
00000300: 1d00 2a3d c664 88bd 9fd2 c43c 2371 233d
00000310: 48c5 113e 526f 203e 628b 8a3d 9801 333d
00000320: e1e4 5abc c3d0 163e e115 763d 96b8 7ebd
00000330: 411b 1bbc 9c1a ff3d 3d2a 6dbd d11f 23be
00000340: cdeb f6bd 5b5f da3d 12f5 81be dffe 9dbe
00000350: d62f b7bd e2b9 663c d6dc 4cbc 4ba7 7fbc
00000360: 2c42 2d3d 4e40 c33d 01da f43d cbc6 763d
00000370: e7a5 99bd c373 573e fbfa 553e 0ec2 b13d
00000380: 9c3e afbd f93b 9f3d c307 90bd 2c6a 8c3d
00000390: 1719 423d 4914 313c 2569 bcbd 6efc 88bd
000003a0: 3d11 65bc 18a3 17be 39dd e0bd c529 11be
000003b0: 7daa 02be 16aa 2fbe 8449 2abe 2f8a e0bd
000003c0: 7234 85bd f793 2bbe 5f19 cfbd 2faa 9fbd
000003d0: 6bb0 2a3c c42d 17bd 3c9e bbbd 57c5 56bd
000003e0: e3c9 a0bd 3861 d73a 0eda 81bd 0fda aa3d
000003f0: b1fa b5bd a25d 2abd 4cdf 48bb 3732 7fbb

conv1.bias f4 [6]
0.016261213 -0.25865182 0.007155306 -0.06145592 -0.0037589408 0.08382714
00000000: 3c36 853c 036e 84be 0f77 ea3b 34b9 7bbd
00000010: 9058 76bb 90ad ab3d

conv2.weight f4 [16, 6, 5, 5]
-0.1350171 -0.005085307 0.12006224 0.10890146 0.16553745 -0.1735247 -0.12197026 0.059348226
0.0558622 0.02179019 -0.07895049 -0.14316098 -0.170256 0.026859635 0.099548616 0.0032866998
-0.06078396 -0.06648401 0.00078773993 0.071632564 -0.024266517 0.037850227 0.05127896 -0.028143646
0.062050946 -0.099577315 0.0039260834 -0.070254095 0.047597814 0.0970471 -0.26562053 -0.25422195
-0.0185128 0.10596676 0.21508163 -0.18728061 -0.26593602 -0.09367771 0.14123587 0.1574577
-0.26552233 -0.15064923 0.014703081 0.105193816 0.21016279 -0.11711713 0.017690917 0.019177152
0.2073898 0.22368805 -0.08528698 -0.09775448 0.022278136 -0.00014041322 0.036897164 -0.12480752
-0.085916944 -0.036374077 0.043087266 0.019878894 -0.1298759 -0.06326142 0.108451284 0.03045789
-0.03498799 0.050044984 -0.038395938 0.09016349 0.023238316 -0.10908939 0.018157318 0.10223932
-0.03856476 -0.061393265 -0.0167255 -0.13646877 -0.039278537 -0.023020854 0.025283923 0.16427052
-0.24210699 -0.15790759 -0.100708544 0.14115772 0.18599993 -0.11348768 -0.3488388 -0.14762045
0.2424745 0.26810065 -0.22721699 -0.23459294 -0.053385668 0.16395196 0.29962218 -0.17562456
-0.103599906 0.14677964 0.14617524 0.18404862 0.18526132 0.13445131 -0.0024582963 -0.010928121
-0.01720335 0.08434642 0.12110418 0.054421104 -0.08114381 0.017947614 0.14106467 0.012044708
-0.016676724 0.031445898 0.01841808 0.096252486 -0.054435756 0.022629645 0.014654495 -0.06659544
0.008805613 -0.07114389 -0.07076261 -0.09340898 -0.09946774 -0.066833794 -0.012512361 0.11200723
0.019649677 0.091798425 -0.19385126 -0.12984392 0.0044578663 0.07601078 0.14471391 -0.116662696
-0.15766811 -0.048699137 0.1237735 0.19283612 -0.13106355 -0.15209925 -0.031065103 0.11807645
0.1073045 -0.08716961 -0.035634723 -0.027576247 0.16587143 0.09604237 0.09839409 0.015607985
-0.036400948 -0.03783546 0.14598548 0.06808472 -0.06552421 -0.13807091 -0.026504787 -0.05813643
0.080424584 -0.02505906 -0.07154174 -0.03412955 -0.0769329 0.021484215 0.004684885 -0.08615371
-0.06288178 -0.042948596 0.03254366 0.055316582 -0.08883395 -0.01773507 -0.05091136 0.019456536
-0.034219675 0.088738784 0.02436815 0.11875206 0.04542141 0.05266275 -0.022816772 -0.03423778
0.087155886 0.08456967 -0.0876756 -0.041259833 0.021571606 0.01860634 -0.02250459 0.028424224
-0.008864632 -0.07136904 -0.008143709 0.039839756 0.037249975 0.021347925 -0.042228956 -0.10211371
0.13433018 -0.11167404 -0.3246742 -0.4414362 -0.24735089 -0.08884326 -0.35623193 -0.6913945
-0.84200436 -0.7175823 -0.30685714 -0.65498096 -0.80043924 -0.8270957 -0.7345984 -0.106280096
-0.3058533 -0.45990276 -0.6483713 -0.47238967 -0.04228545 0.021156402 -0.00286566 -0.098981686
-0.023845939 0.2153103 0.15770046 0.012027392 0.02983514 0.015613979 0.11327696 -0.064361915
-0.07836373 -0.03316821 -0.1628828 0.11491175 0.018453568 0.045263827 -0.012852539 -0.069530345
0.19110297 -0.05091099 -0.06779639 0.02032365 -0.112617895 0.061670456 -0.09963588 -0.054281753
-0.06976633 -0.17602311 0.16223298 0.109611176 0.027613828 0.024200758 -0.0017188651 -0.002422225
00000000: ec41 0abe a6a2 a6bb 31e3 f53d bb07 df3d
00000010: a682 293e 75b0 31be 8bcb f9bd 2017 733d
00000020: c3cf 643d 5781 b23c cbb0 a1bd cb98 12be
00000030: 9757 2ebe bd08 dc3c 25e0 cb3d ac65 573b
00000040: 9af8 78bd c528 88bd 5580 4e3a 18b4 923d
00000050: 93ca c6bc d708 1b3d e309 523d 818d e6bc
00000060: 2229 7e3d 31ef cbbd 60a6 803b 61e1 8fbd
00000070: edf5 423d a1c0 c63d 6aff 87be 6129 82be
00000080: 28a8 97bc 1a05 d93d 5c3e 5c3e 7dc6 3fbe
00000090: c428 88be 19da bfbd 23a0 103e 973c 213e
000000a0: 8bf2 87be cb43 1abe 31e5 703c db6f d73d
000000b0: ea34 573e 1bdb efbd 8bec 903c 6719 9d3c
000000c0: fe5d 543e 7b0e 653e f1aa aebd 8033 c8bd
000000d0: a380 b63c e33b 13b9 7b21 173d 169b ffbd
000000e0: 39f5 afbd fcfc 14bd 467c 303d 10d9 a23c
000000f0: 30fe 04be 348f 81bd b51b de3d d382 f93c
00000100: 914f 0fbd f8fb 4c3d 0f45 1dbd a3a7 b83d
00000110: 485e be3c 426a dfbd a8be 943c d962 d13d
00000120: 15f6 1dbd 8177 7bbd ea03 89bc 78be 0bbe
00000130: 88e2 20bd 3b96 bcbc 3b20 cf3c 8836 283e
00000140: e5ea 77be 87b2 21be 4840 cebd a68b 103e
00000150: c476 3e3e 3b6c e8bd 009b b2be d129 17be
00000160: 3c4b 783e 7d44 893e 92ab 68be 2239 70be
00000170: eeaa 5abd 06e3 273e 1468 993e edd6 33be
00000180: 302c d4bd 674d 163e f6ae 153e 3e77 3c3e
00000190: 25b5 3d3e 9bad 093e 5e1b 21bb dd0b 33bc
000001a0: 0aee 8cbc d1bd ac3d 7805 f83d aae8 5e3d
000001b0: ba2e a6bd e006 933c 4273 103e 2b57 453c
000001c0: a09d 88bc 6acd 003d 83e1 963c 0620 c53d
000001d0: 07f8 5ebd ce61 b93c 6819 703c 3163 88bd
000001e0: 6b45 103c e3b3 91bd fdeb 90bd 354d bfbd
000001f0: beb5 cbbd 28e0 88bd a500 4dbc 0c64 e53d
00000200: 5cf8 a03c d000 bc3d f280 46be cef5 04be
00000210: 4b13 923b 8aab 9b3d e22f 143e daec eebd
00000220: c073 21be bf78 47bd f67c fd3d d576 453e
00000230: 8635 06be e8bf 1bbe 3e7c febc 11d2 f13d
00000240: 76c2 db3d fb85 b2bd b7f5 11bd 95e7 e1bc
00000250: 33da 293e ddb1 c43d d782 c93d a2b8 7f3c
00000260: 2919 15bd 5bf9 1abd 387d 153e 0070 8b3d
00000270: 8f31 86bd 7662 0dbe 9120 d9bc 7720 6ebd
00000280: a5b5 a43d a848 cdbc 7a84 92bd 6dcb 0bbd
00000290: ff8e 9dbd aaff af3c aa83 993b 5b71 b0bd
000002a0: 2ac8 80bd deea 2fbd 804c 053d a493 623d
000002b0: 93ee b5bd 2349 91bc 6e88 50bd 5063 9f3c
000002c0: ee29 0cbd aebc b53d b79f c73c 4834 f33d
000002d0: cd0b 3a3d e5b4 573d 3dea babc ea3c 0cbd
000002e0: c97e b23d dd32 ad3d 448f b3bd 1200 29bd
000002f0: f0b6 b03c 536c 983c 8c5b b8bc ebd9 e83c
00000300: f63c 11bc ee29 92bd 316d 05bc 032f 233d
00000310: 6e93 183d d8e1 ae3c 45f8 2cbd fe20 d1bd
00000320: da8d 093e 5cb5 e4bd b23b a6be ed03 e2be
00000330: 8d49 7dbe 75f3 b5bd 0864 b6be 3bff 30bf
00000340: 998d 57bf 79b3 37bf 611c 9dbe d5ac 27bf
00000350: 96e9 4cbf 8bbc 53bf a40e 3cbf 61a9 d9bd
00000360: ce98 9cbe 6078 ebbe a9fb 25bf 0fdd f1be
00000370: 8233 2dbd 3150 ad3c cccd 3bbb e9b6 cabd
00000380: 8f58 c3bc 4e7a 5c3e 3b7c 213e 8a0e 453c
00000390: d368 f43c c6d1 7f3c c0fd e73d 2ed0 83bd
000003a0: 2a7d a0bd 64db 07bd c0ca 26be da56 eb3d
000003b0: f02b 973c 9066 393d 7593 52bc ed65 8ebd
000003c0: 7fb0 433e 0b88 50bd d5d8 8abd c97d a63c
000003d0: 36a4 e6bd 299a 7c3d e50d ccbd 8b56 5ebd
000003e0: a6e1 8ebd 673f 34be 6720 263e d37b e03d
000003f0: 6536 e23c ab40 c63c 8b4b e1ba 31be 1ebb

conv2.bias f4 [16]
-0.14117819 0.4870319 -0.1351092 0.1260426 0.18331522 -0.063860886 0.07535605 0.31245515
0.108903416 -0.031883903 0.08109755 0.010281483 -0.066023596 -0.28595307 0.039665297 0.17343812
00000000: 0491 10be 3f5c f93e 115a 0abe 5011 013e
00000010: fcb6 3b3e 7fc9 82bd 4654 9a3d 1ffa 9f3e
00000020: c108 df3d b298 02bd 7916 a63d aa73 283c
00000030: 6137 87bd 7168 92be 1478 223d c399 313e

fc1.weight f4 [256, 400]
0.10721077 0.25403515 0.15430768 0.2826196 0.15897377 0.07122005 0.067544155 0.024202524
0.008792188 0.03993277 0.07298357 0.04384619 0.031201204 0.0013076693 0.014984571 -0.006625359
-0.0050384216 -0.0749608 -0.105606034 0.088022366 -0.007191061 0.09499673 0.09293509 0.04898329
-0.034860425 0.09975795 -0.1354507 -0.23617713 0.025108054 0.1894036 -0.032525357 -0.3017397
-0.2785973 0.17097738 0.046978258 0.011689223 -0.09269361 0.021828689 0.1157708 0.16037193
0.09801543 0.13804136 0.026801517 0.031986404 0.15731162 0.12890352 0.08150106 -0.007010911
0.10428022 0.16763903 -0.38883364 -0.21801774 -0.058982044 -0.09928154 0.051197063 -0.25548384
0.13398412 0.12675335 0.10828345 0.061497338 0.024265746 0.3046263 0.15721348 -0.0014509986
0.018912047 -0.00023130309 0.23858917 0.11844326 0.17967345 0.13635094 -0.12610765 0.15177512
0.14445256 0.18223137 0.2093589 -0.021308724 0.0067221466 0.12033398 0.118675455 -0.19916458
-0.05462564 0.04460566 0.01947848 -0.020463895 -0.14625594 -0.06833773 0.03546815 -0.12910236
-0.058514208 -0.0019979875 -0.17003919 -0.1395894 -0.104213595 -0.06018381 -0.1077734 -0.17719558
-0.094908565 -0.11664833 0.06660213 -0.1952182 0.32128882 0.15025929 -0.08420406 0.045232166
0.11193098 0.035263155 -0.016803127 -0.17736168 -0.22073856 -0.10526391 -0.015004995 0.09674625
-0.094251595 -0.0400147 -0.04054962 0.03892773 0.06792135 0.011014809 0.041349083 -0.02580087
-0.16071856 -0.02635711 -0.050520398 -0.020982571 -0.09161237 -0.046000734 0.06663428 0.14483556
0.041016303 0.023156444 0.19616435 0.15354502 0.12095703 0.10759112 -0.04776407 0.065624565
0.07430202 0.020868752 0.10844152 0.120261826 -0.04121119 -0.008816662 -0.055238664 0.0497079
0.06534926 0.08770306 0.12935004 0.019582432 0.104665525 0.078951955 -0.25518665 -0.45457262
-0.043332867 0.12121634 0.34779885 -0.27427882 -0.38502267 -0.042381614 0.16341874 0.17251411
-0.22734228 -0.2155022 -0.006549576 -0.04666821 0.18261984 -0.19119005 -0.14039083 -0.09457606
-0.14154157 0.02419823 -0.15586704 -0.15879181 -0.085707515 -0.10605892 0.005524558 0.06435971
-0.2052133 -0.135024 -0.09222953 0.2465113 0.027596992 -0.028538406 -0.048079588 0.002407322
0.12554699 0.016814016 0.03376671 -0.089540154 0.104712985 0.21527047 0.06997962 0.10427811
0.11970808 0.16198465 0.04401419 -0.09023365 -0.012709828 0.17783436 0.062548846 -0.075002015
-0.0043490767 0.08322068 -0.01152059 -0.045322843 -0.25944498 -0.026460867 0.025027888 -0.054490414
-0.062322043 -0.2618991 -0.03089283 0.16058597 -0.016997386 -0.06170104 -0.22418362 -0.05989135
0.09880038 0.09095766 0.057012912 -0.1319924 -0.058554802 0.040644594 0.06850953 -0.057636134
-0.11686846 -0.16021617 -0.299356 -0.28890827 -0.048407648 0.05018642 -0.16986585 -0.15200165
-0.2187183 -0.08419747 0.115552716 0.036810104 0.027311394 0.07939695 -0.053156964 0.11096247
0.08808542 0.11513255 0.013872566 0.061035357 0.082998574 -0.13764794 0.012066988 -0.0009939221
0.09804982 0.07033546 0.06780238 0.18875252 0.18074794 0.1155475 0.21799263 -0.16307157
00000000: 5291 db3d e510 823e d502 1e3e 84b3 903e
00000010: 05ca 223e d1db 913d 9754 8a3d 5f44 c63c
00000020: 1c0d 103c 8b90 233d 6978 953d 1098 333d
00000030: ab99 ff3c 1a66 ab3a d981 753c 8a19 d9bb
00000040: 5819 a5bb 0c85 99bd fa47 d8bd 1245 b43d
00000050: fea2 ebbb a58d c23d c154 be3d b4a2 483d
00000060: cec9 0ebd e54d cc3d 97b3 0abe 6bd8 71be
00000070: 68af cd3c 04f3 413e 4f39 05bd a07d 9abe
00000080: 4ea4 8ebe b214 2f3e 466c 403d 2884 3f3c
00000090: 26d6 bdbd 14d2 b23c 3e19 ed3d 8a38 243e
000000a0: 50bc c83d b75a 0d3e db8e db3c 2d04 033d
000000b0: 4c16 213e 49ff 033e 07ea a63d c9bb e5bb
000000c0: de90 d53d 91a9 2b3e 3415 c7be 0b40 5fbe
000000d0: 2897 71bd 1f54 cbbd 03b4 513d c7ce 82be
000000e0: 2233 093e a1cb 013e b7c3 dd3d a2e4 7b3d
000000f0: f5c8 c63c faf7 9b3e 92fc 203e 6f2f beba
00000100: 70ed 9a3c f389 72b9 b850 743e 6192 f23d
00000110: 51fc 373e 959f 0b3e 5d22 01be f06a 1b3e
00000120: 5feb 133e dc9a 3a3e 2e62 563e a28f aebc
00000130: 7445 dc3b a971 f63d 1e0c f33d cdf1 4bbe
00000140: 23bf 5fbd 6db4 363d 5591 9f3c e6a3 a7bc
00000150: 1ec4 15be a7f4 8bbd 0d47 113d 6933 04be
00000160: 98ac 6fbd abf0 02bb c11e 2ebe 86f0 0ebe
00000170: f06d d5bd 4c83 76bd 4db8 dcbd c272 35be
00000180: 6c5f c2bd 52e5 eebd b366 883d 48e7 47be
00000190: f87f a43e 92dd 193e 2e73 acbd 5d45 393d
000001a0: 123c e53d 1970 103d b6a6 89bc 4d9e 35be
000001b0: 4a09 62be 9b94 d7bd 83d7 75bc e622 c63d
000001c0: fb06 c1bd 74e6 23bd 5c17 26bd af72 1f3d
000001d0: 591a 8b3d 7577 343c a85d 293d 595c d3bc
000001e0: 6893 24be deea d7bc 7aee 4ebd a4e3 abbc
000001f0: 449f bbbd 446b 3cbd 8e77 883d c64f 143e
00000200: b600 283d 95b2 bd3c 4fdf 483e e83a 1d3e
00000210: 52b8 f73d bc58 dc3d 42a4 43bd 2c66 863d
00000220: a82b 983d f2f4 aa3c 9616 de3d d54b f63d
00000230: 11cd 28bd c373 10bc f041 62bd 839a 4b3d
00000240: d5d5 853d a99d b33d 5674 043e 566b a03c
00000250: e15a d63d 90b1 a13d d3a7 82be bebd e8be
00000260: ce7d 31bd 4640 f83d b112 b23e 466e 8cbe
00000270: b121 c5be 5898 2dbd 3e57 273e 8aa7 303e
00000280: 6acc 68be 9cac 5cbe d39d d6bb 2a27 3fbd
00000290: b200 3b3e 53c7 43be 9dc2 0fbe 18b1 c1bd
000002a0: 46f0 10be 5e3b c63c 9c9b 1fbe 529a 22be
000002b0: 6c87 afbd 6b35 d9bd 5a07 b53b 06cf 833d
000002c0: 6f23 52be bb43 0abe d6e2 bcbd 756d 7c3e
000002d0: 1613 e23c 60c9 e9bc 1aef 44bd 29c4 1d3b
000002e0: 648f 003e 8cbd 893c f64e 0a3d d460 b7bd
000002f0: c373 d63d dd6f 5c3e 7a51 8f3d c38f d53d
00000300: 8329 f53d 4edf 253e 3948 343d 6bcc b8bd
00000310: e23c 50bc 361a 363e 9c19 803d a89a 99bd
00000320: b382 8ebb 9b6f aa3d dbc0 3cbc 72a4 39bd
00000330: f9d5 84be 76c4 d8bc 4907 cd3c 5731 5fbd
00000340: 6645 7fbd a417 86be f612 fdbc a670 243e
00000350: 1a3e 8bbc 3bba 7cbd 6490 65be a250 75bd
00000360: db57 ca3d 0248 ba3d 5f86 693d 0429 07be
00000370: 29d7 6fbd f27a 263d b94e 8c3d de13 6cbd
00000380: bb58 efbd b50f 24be 3145 99be c9eb 93be
00000390: 1947 46bd 4790 4d3d 50f1 2dbe 52a6 1bbe
000003a0: b1f7 5fbe b96f acbd e7a6 ec3d 31c6 163d
000003b0: 25bc df3c de9a a23d 1ebb 59bd 4b40 e33d
000003c0: 2166 b43d 9dca eb3d c249 633c 3600 7a3d
000003d0: 28fb a93d 95f3 0cbe 9eb4 453c 7e46 82ba
000003e0: 58ce c83d 0a0c 903d f9db 8a3d 5748 413e
000003f0: fd15 393e 2ba4 ec3d 7639 5f3e 3cfc 26be

fc1.bias f4 [256]
-0.29710415 -0.14733797 0.048651677 -0.039486878 -0.021247974 0.16262096 -0.015087611 -0.072778925
0.17014216 0.08645942 0.48482722 -0.017128164 0.18954715 -0.046077296 0.21960613 0.060106758
-0.06230248 0.07767889 -0.050406504 0.07197293 0.024616102 0.43481404 -0.1994729 -0.03006186
0.32747084 0.317114 -0.030664809 0.49362224 0.038811874 0.09335111 -0.043037407 0.023087183
0.3724206 -0.00010408515 0.20012075 -0.31433696 0.014662925 0.16277856 0.2056214 0.20570683
0.25564936 -0.023583394 -0.06340287 0.26819745 0.021911735 -0.05175254 -0.014946471 0.35761318
-0.056141704 -0.18825655 -0.04958353 -0.030682292 0.18283154 -0.03158132 0.36127055 0.07310472
0.1593196 0.0040969625 -0.09105432 0.0046914686 0.23547211 0.108373195 -0.039439574 0.013454241
-0.01802245 0.025175108 0.24341595 -0.03430515 0.013215786 0.27372548 0.016713545 0.0818912
-0.05890158 0.13246642 -0.026665684 -0.042118445 0.2965928 -0.05711576 -0.026708292 -0.04897393
-0.20714772 0.20968868 0.008350309 0.3637558 -0.043015234 -0.06947991 0.05220258 0.07271946
0.0068511623 -0.034612473 0.03289726 0.021439018 -0.029669972 0.34121948 -0.119692296 -0.023742694
-0.06416271 0.26103118 0.10694156 0.01418513 -0.0063688215 0.12900923 0.2854624 0.06534859
0.17081667 -0.06526921 0.51722616 -0.0062664524 0.31803447 0.36281613 0.0011044755 0.20535655
-0.056195553 -0.075526856 0.28469416 0.011282754 0.45228738 0.28935063 0.17277353 -0.0015334239
0.025569476 -0.02419004 0.20909604 -0.14366886 0.028947474 0.2728808 0.18250297 0.12279042
0.08034655 0.15424289 0.14483148 0.2565981 0.49468488 0.015723882 -0.01702519 -0.06234823
-0.0016690715 -0.030577006 -0.0049506063 -0.04525198 0.34831476 -0.060311873 -0.06545453 -0.09924156
-0.04361441 0.47362718 0.2042355 0.291165 -0.027796557 -0.076595284 -0.069679156 -0.013392673
-0.39595133 -0.04642081 0.33325765 -0.28444037 -0.08322059 -0.011352343 -0.0050183353 0.28276557
-0.022584222 -0.0029544206 -0.006465665 0.22362323 0.06723551 0.34156683 -0.061220173 -0.2699792
0.20427434 0.0947903 0.1316453 0.19606365 0.12646231 -0.036951378 0.27911365 0.2709671
-0.16722415 -0.06693481 0.12043414 0.2775032 0.073877096 0.024883939 0.4605564 0.10928909
-0.0962765 0.1231684 -0.08729395 0.15056671 0.335557 0.004390724 0.2967035 -0.017608408
0.020643193 0.018137008 0.36086917 0.4416537 0.38258693 -0.002086098 -0.15184027 0.37506723
0.005812072 -0.059507895 -0.04078889 0.040747322 0.09701034 -0.041205775 -0.03903542 0.14293176
0.35647357 0.15402673 0.3799455 0.2018046 0.180006 0.051135615 -0.25431624 0.048505515
0.18417658 -0.16069642 0.31069204 -0.09667527 0.13885468 -0.049294416 0.25757807 -0.12402907
0.042096652 0.24175283 0.17336622 0.2320678 0.08605005 -0.3480296 0.4661519 0.4648501
-0.034287095 0.036723733 0.37957063 -0.03823142 0.112511165 -0.048736583 0.25656122 0.16046955
-0.07487938 -0.0976974 0.020097636 0.015180191 -0.021176396 0.3156799 -0.022469321 -0.027715497
0.2545462 0.034782894 0.23941942 0.029763332 -0.2687958 0.1477685 -0.035976805 -0.12313563
00000000: 091e 98be c4df 16be fb46 473d febc 21bd
00000010: 3b10 aebc 1c86 263e 0732 77bc 1e0d 95bd
00000020: bf39 2e3e a311 b13d 463b f83e 5d50 8cbc
00000030: a618 423e 8cbb 3cbd 6ee0 603e 8132 763d
00000040: e330 7fbd 1c16 9f3d 0d77 4ebd 8b66 933d
00000050: b5a7 c93c f29f de3e a042 4cbe 4a44 f6bc
00000060: 42aa a73e c45c a23e c434 fbbc 0ebc fc3e
00000070: 33f9 1e3d de2e bf3d fe47 30bd 5521 bd3c
00000080: eaad be3e 4a48 dab8 74ec 4c3e c6f0 a0be
00000090: c43c 703c 6caf 263e 6b8e 523e d0a4 523e
000000a0: 79e4 823e f631 c1bc 5dd9 81bd 2d51 893e
000000b0: 3d80 b33c 79fa 53bd 0be2 74bc 1319 b73e
000000c0: d8f4 65bd 53c6 40be 1918 4bbd 6e59 fbbc
000000d0: 3138 3b3e 6a5b 01bd 74f8 b83e edb7 953d
000000e0: ad24 233e d03f 863b b07a babd e4ba 993b
000000f0: 9a1f 713e c4f2 dd3d 648b 21bd 2d6f 5c3c
00000100: d1a3 93bc 073c ce3c 0842 793e 8f83 0cbd
00000110: 0687 583c bf25 8c3e d8ea 883c 93b6 a73d
00000120: c842 71bd 47a5 073e fe71 dabc 6484 2cbd
00000130: 03db 973e 37f2 69bd 59cb dabc e398 48bd
00000140: 881e 54be a1b8 563e bccf 083c 333e ba3e
00000150: be30 30bd 7c4b 8ebd 5fd2 553d f1ed 943d
00000160: b77f e03b cfc5 0dbd 47bf 063d e1a0 af3c
00000170: 710e f3bc 52b4 ae3e 3c21 f5bd 0a80 c2bc
00000180: bd67 83bd e1a5 853e 2d04 db3d bf68 683c
00000190: 8cb1 d0bb ff1a 043e 2128 923e 7bd5 853d
000001a0: 91ea 2e3e ddab 85bd ef68 043f d056 cdbb
000001b0: 6ad5 a23e 09c3 b93e 0cc4 903a fd48 523e
000001c0: 4f2d 66bd d3ad 9abd 6fc3 913e 4ddb 383c
000001d0: 3692 e73e c425 943e 8beb 303e 2bfd c8ba
000001e0: 1477 d13c 312a c6bc 461d 563e ee1d 13be
000001f0: 4123 ed3c 08b7 8b3e 0fe2 3a3e 8b79 fb3d
00000200: bb8c a43d d9f1 1d3e b44e 143e d360 833e
00000210: 5647 fd3e 5fcf 803c 6978 8bbc dc60 7fbd
00000220: bfc4 daba a17c fabc b238 a2bb 245a 39bd
00000230: 5056 b23e 9509 77bd 060d 86bd 293f cbbd
00000240: 06a5 32bd 437f f23e 1c23 513e 9413 953e
00000250: 9bb5 e3bc fddd 9cbd f2b3 8ebd f16c 5bbc
00000260: 22ba cabe bf23 3ebd bfa0 aa3e 2ba2 91be
00000270: 8f6f aabd 2dff 39bc d970 a4bb a6c6 903e
00000280: 8c02 b9bc f49e 41bb eedd d3bb 7dfd 643e
00000290: c5b2 893d d9e1 ae3e 01c2 7abd b73a 8abe
000002a0: 4b2d 513e 6b21 c23d 07ce 063e e9c4 483e
000002b0: 567f 013e 545a 17bd fce7 8e3e 33bc 8a3e
000002c0: cf3c 2bbe 1e15 89bd 2da6 f63d e614 8e3e
000002d0: e04c 973d 67d9 cb3c 0cce eb3e f5d2 df3d
000002e0: 9d2c c5bd b73f fc3d 2cc7 b2bd 292e 1a3e
000002f0: 21ce ab3e 10e0 8f3b 85e9 973e 823f 90bc
00000300: ea1b a93c 1094 943c d8c3 b83e 6f20 e23e
00000310: 6fe2 c33e ebb6 08bb 047c 1bbe d008 c03e
00000320: 3273 be3b 8dbe 73bd 4012 27bd aae6 263d
00000330: 5bad c63d 63c7 28bd 9be3 1fbd b45c 123e
00000340: b483 b63e 2fb9 1d3e 3788 c23e dda5 4e3e
00000350: 7e53 383e 9473 513d bd35 82be b8ad 463d
00000360: c998 3c3e 9a8d 24be 0713 9f3e affd c5bd
00000370: ec2f 0e3e f1e8 49bd 46e1 833e f402 febd
00000380: 8a6d 2c3d 0e8e 773e ea86 313e 2ea3 6d3e
00000390: 023b b03d f030 b2be 76ab ee3e d500 ee3e
000003a0: a070 0cbd a06b 163d 1557 c23e 8d98 1cbd
000003b0: 416c e63d 03a0 47bd fe5b 833e 2152 243e
000003c0: 5c5a 99bd 9315 c8bd cca3 a43c 56b6 783c
000003d0: 1f7a adbc cca0 a13e 9511 b8bc 9c0b e3bc
000003e0: e153 823e 8278 0e3d 5d2a 753e 3bd2 f33c
000003f0: 9a9f 89be a050 173e 6a5c 13bd 882e fcbd

fc2.weight f4 [10, 256]
0.028368533 0.027354842 -0.13117258 -0.003348833 0.024415651 0.12689008 0.005074724 -0.02233862
-0.14956504 0.08612083 0.18788642 -0.03476605 0.105923206 -0.022346508 -0.018418606 0.041664287
-0.09503469 0.08752587 -0.0075576035 -0.25121272 -0.075165436 -0.054125637 -0.03811849 -0.043266125
-0.23054954 0.09681007 -0.044316567 -0.16833223 0.02825947 -0.04857926 -0.039884612 0.018794527
-0.4107275 0.10644726 -0.24151656 0.082382016 -0.04641737 0.009170656 -0.1591007 -0.1401322
-0.080907166 0.0061934474 0.13880537 0.0798423 -0.12027253 0.009892668 0.06478129 0.014257306
-0.06048404 0.016269345 -0.08221564 0.045087077 0.010807476 -0.071176544 -0.054043747 0.061090052
-0.2823922 0.031537507 0.054475296 0.03084847 -0.09223087 0.093916796 0.082134195 0.017871067
-0.02517254 0.016498808 -0.12478074 0.016957102 0.05045918 -0.06990793 -0.21643576 0.07506354
0.017179236 -0.051317673 0.05483889 -0.031673603 -0.12968874 0.032041032 0.041853413 -0.0397297
0.12096091 0.055154577 -0.070192255 -0.11157252 -0.011183942 0.05481188 -0.0037463412 -0.12298609
0.015279374 0.0091275675 0.06556363 0.024993127 -0.00038803168 0.07632053 0.08998587 -0.013365011
-0.14390698 0.12528817 0.09659264 -0.064957246 -0.018386975 0.100591354 -0.05128666 -0.053341236
0.07472505 -0.05936734 0.04819908 -0.024057547 -0.031327132 -0.19324139 -0.14646935 -0.05496078
-0.05161641 -0.022939201 0.1485363 -0.019353895 0.11488572 0.062172655 0.11632842 0.06372785
-0.022816168 0.009468802 -0.034942295 0.09194775 -0.012540976 -0.20889945 -0.09555796 -0.046063043
-0.13386935 0.12141798 0.120092355 0.027963787 0.16180542 -0.039323095 0.015289044 0.026952801
0.0062859217 0.02894461 -0.05782667 -0.004014072 -0.09277352 -0.07018157 0.009949554 0.11389073
0.01329524 -0.3788241 -0.03346894 0.10823903 -0.005332447 0.00069389405 -0.027535867 -0.058501083
0.046609223 -0.06864888 0.12759475 0.003103043 -0.04559845 0.026624506 0.031085154 -0.08312924
-0.05637889 0.014889247 0.06541157 -0.12452396 0.07500325 -0.38653773 -0.0147185465 0.101002984
0.057622116 -0.17948028 -0.036661617 0.109694086 0.091397546 0.032509577 -0.20078446 0.0077568023
-0.018755924 0.002573114 0.075249806 0.16189809 0.13424993 -0.08909816 -0.10126392 0.00049092463
0.2235208 0.12204354 -0.04261929 -0.014636055 0.10745511 0.012270445 -0.25737494 0.0016401244
0.0015721265 -0.083127916 0.06672846 -0.045874696 -0.188464 -0.06715093 0.12902187 -0.3031079
0.0026804176 0.004771554 0.026631523 0.30302873 0.07450772 -0.08748213 0.033924893 -0.23531936
0.0072399504 -0.16280816 0.023462636 0.009453289 0.085661836 0.13584174 0.054871377 0.11365961
0.08422213 0.17446336 0.25496984 0.03362666 0.1288684 -0.10553665 -0.11653434 0.15223974
-0.18645349 0.064088665 -0.030795746 -0.05018457 0.17807834 0.029480781 -0.16754466 -0.16337615
0.06817667 -0.023760881 -0.116249554 -0.12578303 -0.008336174 0.0094676055 -0.26782915 0.09748354
0.10373189 -0.10768879 0.056233045 -0.012983431 -0.09383208 0.17069395 -0.090991765 0.03320448
0.0957055 0.1056344 -0.24775112 0.14222836 0.043298032 -0.3494254 0.020009646 -0.040575862
00000000: 2065 e83c 4317 e03c 1b52 06be 1878 5bbb
00000010: 5503 c83c 79ef 013e df49 a63b 7bff b6bc
00000020: 9427 19be 1e60 b03d 4c65 403e d866 0ebd
00000030: 44ee d83d 0610 b7bc 9ee2 96bc 2ca8 2a3d
00000040: 8ca1 c2bd c340 b33d c6a5 f7bb f49e 80be
00000050: 56f0 99bd d8b2 5dbd 2222 1cbd d237 31bd
00000060: 2e15 6cbe 5c44 c63d 4a85 35bd 495f 2cbe
00000070: 6780 e73c 0cfb 46bd 0c5e 23bd fbf6 993c
00000080: e04a d2be 0501 da3d 1e50 77be e7b7 a83d
00000090: 2420 3ebd 8540 163c 4beb 22be d17e 0fbe
000000a0: a8b2 a5bd 67f2 ca3b ff22 0e3e 5c84 a33d
000000b0: 7251 f6bd db14 223c 0eac 843d 7a97 693c
000000c0: 1dbe 77bd 4a47 853c ac60 a8bd 3aad 383d
000000d0: d711 313c 02c5 91bd fa5c 5dbd 9039 7a3d
000000e0: b695 90be 792d 013d 7d21 5f3d eeb5 fc3c
000000f0: 8ae3 bcbd 7357 c03d f935 a83d 5866 923c
00000100: a536 cebc 8228 873c 0b8d ffbd 9fe9 8a3c
00000110: 49ae 4e3d e42b 8fbd 56a1 5dbe eaba 993d
00000120: 78bb 8c3c 7b32 52bd be9e 603d 2ebc 01bd
00000130: 20cd 04be 753d 033d 7c6e 2b3d 9cbb 22bd
00000140: 5bba f73d c4e9 613d f5c0 8fbd 2280 e4bd
00000150: da3c 37bc 6c82 603d 2d85 75bb 22e0 fbbd
00000160: 5756 7a3c cb8b 153c 3946 863d 63be cc3c
00000170: bb70 cbb9 f04d 9c3d 834a b83d ebf8 5abc
00000180: 5a5c 13be 8b4b 003e 5dd2 c53d 4e08 85bd
00000190: 48a0 96bc d702 ce3d f611 52bd 577c 5abd
000001a0: 7209 993d 2b2b 73bd 666c 453d 5514 c5bc
000001b0: e150 00bd 12e1 45be 10fc 15be 8e1e 61bd
000001c0: bb6b 53bd feea bbbc e619 183e 0f8c 9ebc
000001d0: 3449 eb3d c1a8 7e3d 983d ee3d bf83 823d
000001e0: f9e8 babc 0923 1b3c a71f 0fbd 1a4f bc3d
000001f0: aa78 4dbc bde9 55be e4b3 c3bd 9aac 3cbd
00000200: 0c15 09be fda9 f83d fbf2 f53d 5014 e53c
00000210: 52b0 253e 4111 21bd e67e 7a3c 1fcc dc3c
00000220: 22fa cd3b 3f1d ed3c a9db 6cbd 7a88 83bb
00000230: 0b00 bebd 5bbb 8fbd 7403 233c 8b3f e93d
00000240: 47d4 593c 3cf5 c1be ba16 09bd 6dac dd3d
00000250: cfbb aebb 71e6 353a e692 e1bc d59e 6fbd
00000260: 50e9 3e3d c997 8cbd 33a8 023e 6c5c 4b3b
00000270: 71c5 3abd a31b da3c 4ba6 fe3c aa3f aabd
00000280: 8ded 66bd 07f2 733c 80f6 853d 6b06 ffbd
00000290: 4e9b 993d 46e8 c5be 0f26 71bc a7da ce3d
000002a0: 2b05 6c3d aec9 37be 7e2a 16bd 4ba7 e03d
000002b0: a32e bb3d c328 053d 719a 4dbe c62c fe3b
000002c0: 06a6 99bc b0a1 283b 921c 9a3d 9dc8 253e
000002d0: d078 093e 1979 b6bd 7563 cfbd 65b1 003a
000002e0: a3e2 643e f7f1 f93d 9191 2ebd 10cc 6fbc
000002f0: 6d11 dc3d fa09 493c a6c6 83be 71f9 d63a
00000300: d00f ce3a f83e aabd eea8 883d 1be7 3bbd
00000310: b5fc 40be 6d86 89bd 4f1e 043e f530 9bbe
00000320: f2a9 2f3b b25a 9c3b 5a2a da3c 9526 9b3e
00000330: 8197 983d d529 b3bd d4f4 0a3d 8ff7 70be
00000340: 1b3d ed3b 2fb7 26be b734 c03c f8e1 1a3c
00000350: 796f af3d 191a 0b3e cfc0 603d 5fc6 e83d
00000360: a77c ac3d 86a6 323e 688b 823e 1cbc 093d
00000370: 14f6 033e 9923 d8bd 8ea9 eebd bce4 1b3e
00000380: aaed 3ebe eb40 833d 5c47 fcbc 568e 4dbd
00000390: 2b5a 363e ae81 f13c d490 2bbe 144c 27be
000003a0: 36a0 8b3d 2ea6 c2bc 3f14 eebd 44cd 00be
000003b0: 7394 08bc 041e 1b3c e720 89be 73a5 c73d
000003c0: 6371 d43d f18b dcbd 9f54 663d 75b8 54bc
000003d0: 092b c0bd 65ca 2e3e e459 babd 6c01 083d
000003e0: 3f01 c43d d956 d83d 78b2 7dbe 50a4 113e
000003f0: 4759 313d e3e7 b2be 45eb a33c e032 26bd

fc2.bias f4 [10]
-0.4653424 -0.16260369 -0.2192157 0.26960528 0.4203912 -0.13612528 0.12714104 -0.15797609
0.18022971 0.11267824
00000000: 5c41 eebe 9581 26be 157a 60be b409 8a3e
00000010: 843d d73e 6d64 0bbe 4331 023e 7cc4 21be
00000020: 238e 383e d9c3 e63d
